HW01/HW1/models/model.ckpt (torch, 29071 bytes, 7 tensors)

layers.0.weight f4 [64, 94]
0	0xbca5b65f	-0.020228563
1	0x3dc7c138	0.097536504
2	0x3d8c0826	0.06837492
3	0xbb608847	-0.0034260915
4	0x3db460d1	0.08807529
5	0x3caac549	0.020846026
6	0xbcc826ba	-0.024432529
7	0x3d1b95da	0.037984706
8	0x3d4230c3	0.047409784
9	0x3c6fe825	0.01464275
10	0xbca239d5	-0.019802967
11	0xbc964f4c	-0.018348359
12	0xbc976d0e	-0.018484619
13	0xbc82fd39	-0.015989887
14	0x3cbcf994	0.023068227
15	0x3c739072	0.014865981
16	0x3d5c751f	0.053822633
17	0x3cc048af	0.023472158
18	0x3dcd3a88	0.100209296
19	0x3d98c176	0.07458775
20	0x3d99fc08	0.07518774
21	0xbd842f92	-0.06454386
22	0x3d952d37	0.07284015
23	0x3da814b8	0.08207077
24	0x3d8a5e94	0.067563206
25	0xbd410e99	-0.047133062
26	0x3d6a9216	0.057268225
27	0x3da1e37b	0.079047166
28	0xbdcbfb6b	-0.099600635
29	0x3d9364f6	0.07196991
30	0x3d7d8ddf	0.061902877
31	0xbdbaab1f	-0.0911467
32	0xbc5d5a4f	-0.013510301
33	0xbd043269	-0.032274637
34	0xbc84e31f	-0.016221581
35	0x3d32c580	0.043645382
36	0xbcd53e9f	-0.026030837
37	0xbda36846	-0.07978873
38	0x3d2d7489	0.042347465
39	0x3d67836d	0.05652182
40	0xbc8a6b44	-0.016896851
41	0x3dcecc22	0.10097529
42	0xbc9faebf	-0.019492505
43	0xbd9966e3	-0.07490327
44	0xbd98197f	-0.07426738
45	0xbda3ce6e	-0.07998358
46	0x3d9af207	0.07565694
47	0xbcdfbe64	-0.027312465
48	0x3d25dc0b	0.040493052
49	0xbd940d95	-0.07229153
50	0xbd926db0	-0.071498275
51	0x3d9cfcf7	0.07665437
52	0x3d2ff05a	0.042953826
53	0xbd301006	-0.04298403
54	0x3d5ad589	0.0534263
55	0xbd7412ce	-0.059588246
56	0xbc096000	-0.008384705
57	0xbd9594a2	-0.0730374
58	0x3cd95423	0.026529377
59	0xbc64f54b	-0.013974498
60	0xbd9894b1	-0.07450236
61	0xbd9fd4a4	-0.0780423
62	0xbced42ec	-0.028962575
63	0x3ca0fe7c	0.019652598
64	0xbd423099	-0.047409628
65	0xbd9a6b93	-0.075400494
66	0x3d5e07e8	0.05420676
67	0x3cbfb11e	0.023399886
68	0x3dd02994	0.101641804
69	0x3da8933a	0.08231206
70	0x3d3cc9cd	0.04609089
71	0x3d8225c5	0.0635486
72	0xbda69d7d	-0.08135507
73	0xbd7627a5	-0.0600964
74	0x3d8e4bc3	0.06948044
75	0x3dcbe1f7	0.09955209
76	0x3d927511	0.07151235
77	0xbd0d475e	-0.03449189
78	0x3d9762c0	0.07391882
79	0xbdd0d2a1	-0.10196424
80	0x3d1ac991	0.037789885
81	0xbcb9e3e1	-0.022691669
82	0x3d8791d4	0.066196114
83	0x3dbf889e	0.093522295
84	0x3dcc0cc4	0.09963372
85	0x3dc754fb	0.097330056
86	0x3d773d5a	0.060361244
87	0xbce0a0dc	-0.027420454
88	0xbb546e47	-0.0032414363
89	0xbcb4b622	-0.022059504
90	0x3d90c9a6	0.070697114
91	0x3b860806	0.004090312
92	0xbd51abf4	-0.051189378
93	0xbd2b8738	-0.041877
94	0x3ca1adc7	0.019736184
95	0x3d2b2316	0.041781507
96	0x3da9b36b	0.082861744
97	0x3c5f9f95	0.013648887
98	0xbd94200b	-0.07232674
99	0x3d64a4dd	0.05582129
100	0xbd457133	-0.04820366
101	0x3d709829	0.05873886
102	0x3d62a170	0.05532974
103	0x3be18b7f	0.0068830843
104	0xbbc469ac	-0.0059940424
105	0x3cd1e45d	0.025621587
106	0x3d539ebb	0.05166505
107	0x3dac6ddc	0.084193915
108	0xbd26c41b	-0.040714364
109	0x3da7b550	0.081888795
110	0x3c00b61c	0.007855918
111	0x3ce985e5	0.028506229
112	0xbd96ee3a	-0.07369657
113	0x3c21dac3	0.009878817
114	0x3dc21d36	0.09478228
115	0x3d4636dd	0.048392165
116	0x3b93a515	0.0045057633
117	0xbca81186	-0.020516168
118	0x3ccc66ae	0.024951305
119	0x3da67e31	0.08129538
120	0x3dca4ec5	0.09878305
121	0xbbdaa625	-0.006672638
122	0x3ca7f6a3	0.020503348
123	0xbc332898	-0.010934971
124	0x3d64a0f3	0.055817556
125	0xbd46560a	-0.048421897
126	0x3d83485e	0.06410287
127	0x3c94b87b	0.018154373
128	0xbb960c69	-0.004579116
129	0x3cbdbf50	0.023162514
130	0x3d949960	0.072558165
131	0xbd08d7bc	-0.033408865
132	0xbdd111ba	-0.10208459
133	0xbb58eed8	-0.0033101346
134	0xbda2acfd	-0.07943151
135	0x3d8ac112	0.067751065
136	0x3dd2362f	0.10264241
137	0x3cf1ebae	0.029531326
138	0x3dd338d9	0.10313577
139	0x3d918767	0.07105904
140	0xbd276af5	-0.040873487
141	0x3dae39c7	0.08507114
142	0xbdb76a50	-0.089558244
143	0xbda8020e	-0.08203517
144	0xbd5af643	-0.05345751
145	0xbd25753d	-0.04039501
146	0x3c62bb6b	0.013838629
147	0x3d2471d8	0.040147632
148	0x3dd2da7f	0.10295581
149	0xbbc2fcb8	-0.0059505366
150	0xbd6048f2	-0.054757066
151	0x3d094fb0	0.03352326
152	0x3c257f28	0.010101117
153	0xbd85421e	-0.065067515
154	0xbc2d3639	-0.01057201
155	0xbd20f87c	-0.039299473
156	0x3d60d84d	0.05489378
157	0x3d6ff2cf	0.05858117
158	0x3d57f520	0.052724004
159	0x3d43a009	0.047760043
160	0xbcb75d02	-0.022383217
161	0x3db0e2f6	0.08637039
162	0x3d1ef146	0.038804315
163	0x3d0ed850	0.03487426
164	0xbd945b0f	-0.072439305
165	0xbcc0c23e	-0.023530122
166	0x3d385fd5	0.045013268
167	0x3db86660	0.090039015
168	0xbdcae177	-0.09906285
169	0xbcdff54d	-0.027338648
170	0xbca2a5a9	-0.019854384
171	0xbd16f6a8	-0.036856323
172	0xbd219952	-0.03945286
173	0xbd2276d7	-0.039664116
174	0x3c6f63a4	0.0146111585
175	0x3d880133	0.06640854
176	0x3da7829b	0.08179208
177	0x3d50c5f0	0.050970018
178	0x3c5a6888	0.013330586
179	0x38d8036b	0.00010300319
180	0x3d6fc436	0.05853673
181	0x3c080913	0.008302945
182	0x3d78c298	0.060732454
183	0xbcfb5369	-0.030679421
184	0xbd7aafe1	-0.061202887
185	0x3c953892	0.018215451
186	0x3d8d5664	0.06901243
187	0xbd83b16c	-0.06430325
188	0xbcf57f70	-0.029967993
189	0xbcc2b96c	-0.023770057
190	0xbd72531a	-0.059161283
191	0x3d9c7426	0.07639341
192	0xbd02ea3e	-0.031961672
193	0xbd0f0f0a	-0.03492645
194	0x3d5df8cc	0.05419235
195	0x3d2abe9c	0.041685686
196	0xbcb92240	-0.02259934
197	0xbd27f1e1	-0.041002158
198	0x3d9f8ef2	0.077909365
199	0x3d866ea6	0.06564073
200	0x3d97ccb4	0.07412091
201	0x3da6c372	0.08142747
202	0x3dbdfe96	0.09277074
203	0xba8a8f00	-0.0010571182
204	0xbbdda680	-0.006764233
205	0xbd84961f	-0.06473946
206	0x3daf9756	0.08573787
207	0x3d5874c0	0.052845716
208	0x3c5396a0	0.01291433
209	0x3dae3c52	0.08507599
210	0xbdaf5b78	-0.08562368
211	0x3dc9891c	0.09840605
212	0xbd0f2306	-0.03494551
213	0xbda25aac	-0.079274505
214	0xbd31a549	-0.04337052
215	0x3dcce036	0.10003702
216	0x3b347940	0.002753809
217	0xbdbc2098	-0.09185904
218	0xbcbd356c	-0.023096763
219	0x3cbd30e0	0.023094594
220	0x3d958cc2	0.07302238
221	0x3d667660	0.056265235
222	0xbb4795e0	-0.0030454323
223	0x3cdbbab8	0.026822433
224	0xbcddc0b4	-0.027069427
225	0x3d88171c	0.06645033
226	0x3d632e90	0.055464327
227	0xbd64f8df	-0.055901404
228	0x3dc15f50	0.094420075
229	0x3d8c3830	0.068466544
230	0x3d37a910	0.044838965
231	0x3d87e03c	0.06634566
232	0xbdbb4712	-0.09144415
233	0x3c9ed2f0	0.019387692
234	0xbce192a4	-0.027535744
235	0xbdba23c4	-0.09088853
236	0xbc91ce0c	-0.017798446
237	0xbd07f06a	-0.03318826
238	0x3d52ecc8	0.051495343
239	0x3da7165a	0.0815856
240	0x3da161ae	0.07879959
241	0xb8d3c000	-0.00010097027
242	0xbd1aa458	-0.037754387
243	0x3d6af9b8	0.057367057
244	0xbdacf260	-0.08444667
245	0x3bc7f1f0	0.0061018392
246	0xbd866a61	-0.06563259
247	0x3bc7a5a0	0.006092742
248	0xbd86cdd0	-0.06582224
249	0xbc4d7928	-0.012541093
250	0xbd36eca7	-0.044659283
251	0x3a313100	0.0006759316
252	0x3b86c260	0.004112527
253	0xbda37866	-0.079819486
254	0x3d567694	0.05235918
255	0x3daf8cfe	0.08571814

layers.0.bias f4 [64]
0	0xbdcb094d	-0.09913883
1	0x3d64f3d7	0.055896606
2	0x3c717558	0.01473745
3	0x3d65f7d8	0.056144565
4	0x3c9ecbf6	0.019384366
5	0xbd833086	-0.064057395
6	0x3c9949d0	0.018711954
7	0x3b80421b	0.0039141304
8	0xbd99ff15	-0.07519356
9	0xbd9e4fc6	-0.07730059
10	0xbd8b0dbb	-0.06789728
11	0xbcf923e0	-0.030412614
12	0xbc84f98b	-0.016232273
13	0xbbc34676	-0.0059593273
14	0xbb5325c5	-0.0032218557
15	0xbc937106	-0.01799823
16	0x3dd21050	0.102570176
17	0x3d8459af	0.06462418
18	0x3c9e86e9	0.01935144
19	0xbd1457fd	-0.036216725
20	0x3d213c8f	0.039364394
21	0x3daa00b2	0.08300914
22	0x3d9e38cd	0.07725678
23	0xbd7141d2	-0.05890066
24	0x3ccf438e	0.025300767
25	0x3ce6707e	0.028129812
26	0x3c865b88	0.016401067
27	0xbdcf7c3e	-0.10131119
28	0x3dba0f89	0.09084994
29	0x3d095386	0.03352692
30	0xbdcfdff1	-0.10150135
31	0xbd88f17a	-0.06686683
32	0xbc901d89	-0.017592208
33	0xbdc6c2f1	-0.09705151
34	0x3db89511	0.09012807
35	0x3d67220c	0.056428954
36	0xbd20d2ad	-0.039263416
37	0x3d4eabe0	0.05045688
38	0x3d328c58	0.043590873
39	0xbd7902f7	-0.060793843
40	0x3d83bd30	0.06432569
41	0x3d7b5385	0.061358947
42	0x3db29d53	0.087214135
43	0x3d2eb1eb	0.042650145
44	0x3db530f4	0.08847228
45	0x3cb7f2bd	0.022454614
46	0xbda23456	-0.079201385
47	0xbd6a0527	-0.05713382
48	0x3b8dfdec	0.0043332484
49	0x3cf80de3	0.03028006
50	0x3d8707b4	0.06593266
51	0xbd06f6b5	-0.032950122
52	0x3d13eb8b	0.036113303
53	0x3da217fb	0.0791473
54	0x3d8d4810	0.068985105
55	0x3beb5454	0.0071816836
56	0x3cdb6080	0.026779413
57	0xbd7d0664	-0.061773673
58	0x3d242294	0.04007204
59	0xbdafb347	-0.08579116
60	0xbdc90f5f	-0.09817385
61	0x3b8a5bdd	0.0042223767
62	0xbdb60bb4	-0.08888951
63	0x3d21f484	0.03953983

layers.2.weight f4 [8, 64]
0	0xbdc68adb	-0.09694453
1	0x3de0463a	0.10950895
2	0x3cee6540	0.029101014
3	0xbc81a160	-0.01582402
4	0x3de13367	0.10996132
5	0x3bc7f1e0	0.006101832
6	0xbcceb488	-0.025232568
7	0x3d11c33e	0.035586588
8	0x3d47477b	0.048652153
9	0x3d179d42	0.037015207
10	0x3dd23bf7	0.10265344
11	0xbd80bd9b	-0.062861644
12	0x3db88141	0.09009028
13	0x3e021d08	0.12706387
14	0xbc2a2e06	-0.010386949
15	0xbdcf5b5a	-0.10124846
16	0x3ccedabf	0.02525079
17	0x3e1b62b7	0.15174375
18	0x3c8e65c3	0.017382508
19	0x3d9122d0	0.07086718
20	0xbabea667	-0.0014545441
21	0x3e019229	0.12653412
22	0xbd6e0a80	-0.058115482
23	0xbd76cf78	-0.06025645
24	0xbc329ddf	-0.010901897
25	0x3dc7b105	0.09750561
26	0x3cc56d48	0.02409996
27	0x3e24730d	0.16059513
28	0xba86a0ff	-0.0010271369
29	0xbd8d5561	-0.0690105
30	0xbdf11965	-0.11772422
31	0x3cd0204f	0.025406031
32	0xbc55f7e2	-0.013059588
33	0x3e09108a	0.13385215
34	0xbd27bae5	-0.04094972
35	0xbda67b74	-0.081290156
36	0x3dc53097	0.096284084
37	0xbd7dc670	-0.061956823
38	0x3d8aff46	0.06786971
39	0x3defe3ca	0.11713369
40	0x3ce583a0	0.028016865
41	0x3d9eee12	0.07760252
42	0x3e23c3d1	0.15992667
43	0x3d3a323b	0.04545806
44	0xbddf919a	-0.10916443
45	0xbd8410f9	-0.0644855
46	0xbc58edfa	-0.013240332
47	0x3ccc1884	0.024914034
48	0x3de94e3e	0.11391877
49	0xbdcf0c28	-0.101097405
50	0x3d696065	0.056976695
51	0x3d2f0702	0.042731293
52	0x3d18a72d	0.037268806
53	0x3d6acb38	0.05732271
54	0x3da8681d	0.08222983
55	0x3e19a4a6	0.15004215
56	0xbdc67f28	-0.09692222
57	0xbd2ca998	-0.042153925
58	0x3d5b3ab4	0.05352278
59	0x3d42a6aa	0.047522224
60	0xbcf21555	-0.029551188
61	0xbd3db9ea	-0.04631988
62	0xbda578ca	-0.08079679
63	0xbde2690f	-0.110551946
64	0x3d30e358	0.043185562
65	0x3da06b5a	0.07832976
66	0x3d9f6742	0.07783367
67	0x3d89881e	0.067154154
68	0xbdea792e	-0.114488944
69	0xbda6d0e8	-0.081453145
70	0xbd1e8e34	-0.038709834
71	0xbd929ba4	-0.07158592
72	0xbcc771e8	-0.024346307
73	0xbd6e6394	-0.058200434
74	0x3d6e3b5c	0.05816208
75	0x3d378850	0.044807732
76	0xbd867b84	-0.065665275
77	0xbca59f88	-0.020217672
78	0x3c4295f0	0.011876568
79	0x3df604b8	0.12012619
80	0x3dc2c486	0.0951014
81	0x3c624cf0	0.013812289
82	0xbd48b13c	-0.04899715
83	0xbd152c88	-0.03641942
84	0xbd0a5efc	-0.03378199
85	0x3d072828	0.03299728
86	0x3d1e1ed0	0.038603604
87	0x39cbec00	0.0003889501
88	0xbceecf08	-0.029151455
89	0xbd4c6dac	-0.04990928
90	0x3de075ae	0.109599456
91	0xbdb2c4ec	-0.08728966
92	0x3d1c2138	0.038117617
93	0xbd7201f8	-0.05908391
94	0xbdc40d2a	-0.09572823
95	0xbb77ee80	-0.0037831366
96	0x3d941af8	0.072317064
97	0xbdd8265e	-0.10554193
98	0x3d58c580	0.052922726
99	0xbdf5b2d6	-0.11997001
100	0xbcd28f18	-0.025702998
101	0x3d96bf7e	0.07360743
102	0x3b9ae140	0.004726559
103	0x3d90b75a	0.070662215
104	0xbd5618c4	-0.052269712
105	0xbcfa8c80	-0.030584574
106	0xbdd9613e	-0.106142506
107	0xbc97c950	-0.01852861
108	0xbd57aef8	-0.052657098
109	0xbdbe1b9c	-0.0928261
110	0x3dbd36e8	0.09238988
111	0x3d4676e0	0.04845321
112	0xbc65dd00	-0.014029741
113	0xbce23190	-0.027611524
114	0xbce244a8	-0.027620628
115	0x3deceab2	0.11568202
116	0xbdc6c368	-0.097052395
117	0xbdfe7a3e	-0.124256596
118	0xbd9a4fc8	-0.07534748
119	0xbdce3524	-0.100687295
120	0x3c8f3740	0.0174824
121	0xbdbd1ae2	-0.09233643
122	0x3d9e6a96	0.077351734
123	0x3d16fd24	0.036862507
124	0x3d84232e	0.064520225
125	0x3d908320	0.0705626
126	0xbcd621c8	-0.026139155
127	0x3d150408	0.036380798
128	0xbd7a1084	-0.061050907
129	0xbdce2de5	-0.100673474
130	0xbc308dc0	-0.010775983
131	0x3de0f372	0.109839335
132	0x3d6219a6	0.05520024
133	0xbdfcb93a	-0.12340017
134	0xbcf770d8	-0.030205175
135	0xbdbdfcd8	-0.09276742
136	0xbd5b7b52	-0.053584404
137	0x3b9597a0	0.0045651942
138	0xbdcac92e	-0.09901653
139	0x3e0dc0c4	0.13843066
140	0x3d59a3d9	0.053134773
141	0x3c5fc420	0.0136576
142	0xbd00b1dc	-0.03141962
143	0xbd19312c	-0.03740041
144	0x3ce83c4f	0.02834907
145	0x3d3386d3	0.04382975
146	0xbd8ca642	-0.06867649
147	0x3c88d2ba	0.016702045
148	0xbdb18c76	-0.08669369
149	0xbdda6577	-0.10663884
150	0x3d9cea1c	0.0766184
151	0x3cd098b8	0.025463447
152	0xbd7079a2	-0.058709748
153	0x3daf0c7c	0.08547303
154	0x3dc74c2e	0.09731327
155	0xbd8f645a	-0.070015624
156	0x3d56afe7	0.052413847
157	0x3de224b9	0.110421605
158	0xbdef23c4	-0.116767436
159	0xbd30e22f	-0.043184455
160	0xbcd1d988	-0.025616422
161	0x3c8d7d13	0.017271554
162	0x3de013c2	0.109412685
163	0xbde6a4e8	-0.11261922
164	0x3bc063b6	0.0058712615
165	0x3a9d2d00	0.001199156
166	0x3da9fd56	0.08300273
167	0x3d3cc530	0.04608649
168	0x3d99b19e	0.07504581
169	0x3dcc6414	0.09980026
170	0xbd679ec5	-0.0565479
171	0x3d42ec3e	0.04758858
172	0x3db08784	0.086195976
173	0x3df25d68	0.11834222
174	0x3d5cced1	0.053908173
175	0xbd678000	-0.056518555
176	0x3d8461e4	0.06463984
177	0xbdad6c99	-0.08467979
178	0xbbe07dbc	-0.006850926
179	0xbbcd7d75	-0.006271059
180	0x3cf5946c	0.029978
181	0x3deb5f09	0.11492736
182	0xbc18e06b	-0.009330849
183	0x3d85cba1	0.0653298
184	0xbd5aeb84	-0.05344726
185	0x3b9273c0	0.004469365
186	0x3d2fa3c0	0.042880774
187	0x3ce47520	0.02788788
188	0x3caf93b8	0.021432742
189	0xbd69f783	-0.05712081
190	0x3d7c7656	0.06163629
191	0xbdd78a33	-0.10524406
192	0xbd35535e	-0.04426896
193	0xbdfb63ea	-0.122749165
194	0x3dbb91ac	0.09158644
195	0xbd8e68c2	-0.06953575
196	0x3de5a7f5	0.11213676
197	0xbd5e63d8	-0.054294437
198	0x3d96bbcc	0.07360038
199	0xbd0ec4e4	-0.03485574
200	0x3dbfba14	0.093616635
201	0x3d1f74b5	0.03892966
202	0x3aed9ea2	0.0018128941
203	0xbd048c5f	-0.03236043
204	0xbda330c5	-0.079682864
205	0x3d554730	0.052069843
206	0x3d2dde84	0.042448536
207	0xbd00cf89	-0.03144792
208	0x3db1b03d	0.08676193
209	0xbd6e43b0	-0.05817002
210	0x3def7d64	0.11693838
211	0xbd84d0b1	-0.06485117
212	0xbb6eb8a9	-0.0036425984
213	0x3dc5c870	0.09657371
214	0xbceb0d1c	-0.028692774
215	0x3c25f059	0.010128104
216	0xbdd5f0e3	-0.10446336
217	0x3cf5dbac	0.030011974
218	0xbc91e3c0	-0.017808795
219	0xbccf0300	-0.025269985
220	0x3bfb4170	0.007667713
221	0x3b91d086	0.0044499068
222	0xbd5a03b7	-0.0532262
223	0x3d7ba2f1	0.06143469
224	0xbda181e7	-0.07886105
225	0xbd4e85d7	-0.05042061
226	0xbde97112	-0.113985196
227	0xbda1c48a	-0.07898815
228	0xbccbc57b	-0.02487444
229	0x3d940ea0	0.07229352
230	0xbe050348	-0.12989533
231	0xbdc4c08a	-0.096070364
232	0xbd4094d8	-0.04701695
233	0xbdd0d39d	-0.10196612
234	0x3d11a591	0.035558287
235	0xbcd3eaf7	-0.025868876
236	0xbdcdd351	-0.10050071
237	0xbdf1af20	-0.118009806
238	0x3d5fa0d5	0.05459674
239	0xbdbf66f9	-0.09345812
240	0x3da66767	0.08125191
241	0x3d3e9f77	0.046538796
242	0x3de558f8	0.1119861
243	0xbc947a77	-0.018124802
244	0xbc850ad4	-0.016240515
245	0x3d0b2685	0.033972282
246	0x3d27015e	0.04077279
247	0x3cd919e6	0.026501607
248	0xbdb73562	-0.08945729
249	0x3d51b85c	0.05120121
250	0xbd9608f6	-0.07325928
251	0x3cfc96c6	0.030833613
252	0x3d3ef886	0.04662373
253	0x3cf332e8	0.02968736
254	0x3db79093	0.08963122
255	0xbced5dd4	-0.028975405

layers.2.bias f4 [8]
0	0x3dfdca28	0.12392074
1	0xbc94b6e8	-0.018153623
2	0x3d550fdd	0.05201708
3	0x3d61cfed	0.055129934
4	0xbdf06251	-0.11737502
5	0xbd0d3cfb	-0.034481984
6	0xbc9b9235	-0.018990615
7	0xbd12e5a5	-0.035863537

layers.4.weight f4 [4, 8]
0	0xbd2ec2d8	-0.042666286
1	0xbe1c3eee	-0.15258381
2	0xbde251f1	-0.11050785
3	0xbcd9e063	-0.026596254
4	0x3d68a500	0.05679798
5	0xbeabb796	-0.33538502
6	0xbe7192e8	-0.23591197
7	0x3e1b429d	0.1516213
8	0xbe6ef554	-0.23335773
9	0x3e0a8608	0.13527691
10	0x3e25e14b	0.16199224
11	0xbe600f71	-0.2188089
12	0xbe96b21c	-0.29432762
13	0x3eb0923d	0.3448657
14	0xbddf5a8e	-0.10905944
15	0x3e867c6e	0.26266807
16	0xbe8344d7	-0.25638458
17	0x3d7d90f8	0.06190583
18	0xbe5e3a76	-0.21701989
19	0x3e2dce23	0.16973166
20	0x3c17576d	0.0092371525
21	0x3e8a6d1e	0.27036375
22	0xbd58a0eb	-0.05288784
23	0xbe8998b9	-0.2687433
24	0xbdcb8bcb	-0.09938773
25	0x3dd89580	0.1057539
26	0xbe6d47df	-0.23171948
27	0x3cc8077e	0.024417635
28	0x3e3033c9	0.17207254
29	0x3e2ef874	0.17086965
30	0x3ea14d25	0.3150417
31	0xbe14a64a	-0.14516559

layers.4.bias f4 [4]
0	0xbe94df49	-0.29076603
1	0xbe6c8ce9	-0.23100628
2	0xbd1bd494	-0.038044527
3	0xbca8835e	-0.020570453

layers.6.weight f4 [1, 4]
0	0xbdb35bfc	-0.08757779
1	0xbdc4f133	-0.096163176
2	0xbed62298	-0.41823268
3	0xbd0ca278	-0.03433463
