HW01/HW1/models/model.ckpt (torch, 8663 bytes, 5 tensors)

layers.0.weight f4 [16, 94]
-0.32616675 0.09751729 0.068373695 -0.0034302208 0.08807163 0.02084568 -0.02443746 0.037984062
0.047406092 0.014635716 -0.0198181 -0.018355401 -0.018489249 -0.015999697 0.023060871 0.014859585
0.05382031 0.023469945 0.10020434 0.074586555 0.075184725 -0.06454894 0.07283389 0.0820655
0.06755887 -0.047136907 0.05726311 0.079044014 -0.09960738 0.07196453 0.06189512 -0.09115049
-0.013519569 -0.0322793 -0.016222248 0.043638177 -0.026038913 -0.079797104 0.042341918 0.056512117
-0.016902544 0.10072773 -0.019744657 -0.082039915 -0.080212995 -0.099892035 0.07351637 -0.034587976
0.028022492 -0.07613505 -0.079797305 0.07416106 0.04245652 -0.047073003 0.050452452 -0.06389421
-0.022808881 -0.08307231 0.022297002 -0.01422115 -0.07475345 -0.085197 -0.03492474 -0.0002658158
-0.049550984 -0.082664564 0.04176235 0.019575693 0.09336545 0.07983113 0.045594867 0.05947118
-0.08431935 -0.06440006 0.055026148 0.089518264 0.067276604 -0.034737837 0.07366807 -0.10914949
0.031797968 -0.042626515 0.06406378 0.08627652 0.087207414 0.093519635 0.052091673 -0.029894782
-0.0037357835 -0.026129235 0.06774018 -0.00021681684 -0.065675184 -0.05192163 0.0071061933 0.039942518
0.088679574 0.013305108 -0.07341859 0.056003653 -0.046006102 0.058979932 0.057994053 0.007218863
-0.014210197 0.022951746 0.054826595 0.083252735 -0.04297888 0.08868683 0.004275826 0.028383674
-0.07302369 0.0126260435 0.097139195 0.04680521 0.003350652 -0.01961874 0.016834691 0.07962753
0.101295285 -0.0039655752 0.021109859 -0.014689849 0.057453394 -0.049605437 0.056573533 0.019685589
0.00015972847 0.020264838 0.07224145 -0.036325753 -0.101386026 0.003431793 -0.07695858 0.0631374
0.09792168 0.020795293 0.12212318 0.10727718 -0.049486235 0.12445725 -0.12325353 -0.09119467
-0.07507856 -0.09553256 0.017049473 0.041115068 0.10985409 -0.0003579052 -0.019854313 0.056281935
-0.3906635 -0.07410935 -0.019272542 -0.059551314 0.061853357 0.093848184 0.053816076 0.06983928
-0.04907178 0.07506836 0.028685214 -0.019846303 -0.069692254 -0.036748137 0.055346522 0.09306989
-0.064098254 -0.01207771 -0.55913234 -0.051186524 -0.053414814 -0.08292863 -0.0001945213 0.10283904
0.09357104 0.06457383 0.003266491 -0.012843364 0.060013305 -0.04398587 0.06544255 -0.051462714
-0.052176077 0.018799143 0.10375823 -0.057699252 -0.029967993 -0.023770057 -0.059161283 0.07639341
-0.031961672 -0.03492645 0.05419235 0.041685686 -0.02259934 -0.041002158 0.077909365 0.06564073
0.07412091 0.08142747 0.09277074 -0.0010571182 -0.006764233 -0.06473946 0.08573787 0.052845716
0.01291433 0.08507599 -0.08562368 0.09840605 -0.03494551 -0.079274505 -0.04337052 0.10003702
0.002753809 -0.09185904 -0.023096763 0.023094594 0.07302238 0.056265235 -0.0030454323 0.026822433
-0.027069427 0.06645033 0.055464327 -0.055901404 0.094420075 0.068466544 0.044838965 0.06634566
-0.09144415 0.019387692 -0.027535744 -0.09088853 -0.017798446 -0.03318826 0.051495343 0.0815856
0.07879959 -0.00010097027 -0.037754387 0.057367057 -0.08444667 0.0061018392 -0.06563259 0.006092742
-0.06582224 -0.012541093 -0.044659283 0.0006759316 0.004112527 -0.079819486 0.05235918 0.08571814
00000000: 54ff a6be 25b7 c73d 8207 8c3d 8ecd 60bb
00000010: e65e b43d 8fc4 aa3c 1131 c8bc 2d95 1b3d
00000020: e42c 423d a4ca 6f3c 9159 a2bc 115e 96bc
00000030: c476 97bc cc11 83bc 27ea bc3c 9e75 733c
00000040: af72 5c3d 0b44 c03c ef37 cd3d d6c0 983d
00000050: 73fa 993d 3c32 84bd ef29 953d f511 a83d
00000060: 4e5c 8a3d a112 41bd b98c 6a3d d4e1 a13d
00000070: f4fe cbbd 2462 933d bd85 7d3d 1cad babd
00000080: 2f81 5dbc 4d37 04bd 85e4 84bc f2bd 323d
00000090: 8f4f d5bc aa6c a3bd b86e 2d3d 4079 673d
000000a0: 3477 8abc 574a ce3d 8cbf a1bc 8b04 a8bd
000000b0: b646 a4bd 3294 ccbd c08f 963d 1fac 0dbd
000000c0: 6d8f e53c b1ec 9bbd c56c a3bd c1e1 973d
000000d0: e3e6 2d3d 9fcf 40bd 3ba7 4e3d f8da 82bd
000000e0: b1d9 babc d121 aabd 34a8 b63c d4ff 68bc
000000f0: 5618 99bd c47b aebd 3f0d 0fbd 315d 8bb9
00000100: f9f5 4abd 0a4c a9bd ff0e 2b3d 345d a03c
00000110: 6336 bf3d 817e a33d afc1 3a3d 0d98 733d
00000120: a0af acbd 2ee4 83bd 1963 613d 5a55 b73d
00000130: 51c8 893d 4349 0ebd 49df 963d c589 dfbd
00000140: 963e 023d 2499 2ebd df33 833d beb1 b03d
00000150: cd99 b23d 3987 bf3d 145e 553d e7e5 f4bc
00000160: 0cd4 74bb fa0c d6bc 5dbb 8a3d 5459 63b9
00000170: b680 86bd c6ab 54bd 12db e83b c49a 233d
00000180: a39d b53d abfd 593c 7c5c 96bd 1664 653d
00000190: e570 3cbd f194 713d 2c8b 6d3d 368c ec3b
000001a0: e3d1 68bc 4d05 bc3c da91 603d 6980 aa3d
000001b0: 9f0a 30bd 71a1 b53d 3a1c 8c3b e184 e83c
000001c0: 728d 95bd 77dd 4e3c eaf0 c63d d2b6 3f3d
000001d0: 9d96 5b3b 7bb7 a0bc e8e8 893c c213 a33d
000001e0: e773 cf3d a8f1 81bb 95ee ac3c b1ad 70bc
000001f0: 4054 6b3d 122f 4bbd a6b9 673d ac43 a13c
00000200: c97c 2739 7202 a63c 53f3 933d 50ca 14bd
00000210: 7aa3 cfbd efe7 603b 769c 9dbd 2e4e 813d
00000220: 298b c83d e45a aa3c b81b fa3d 23b4 db3d
00000230: 14b2 4abd 71e3 fe3d 596c fcbd 45c4 babd
00000240: cac2 99bd 93a6 c3bd 56ab 8b3c 4668 283d
00000250: 2efb e03d 39a5 bbb9 83a5 a2bc e387 663d
00000260: 0c05 c8be a5c6 97bd 73e1 9dbc 14ec 73bd
00000270: f259 7d3d 7a33 c03d 3f6e 5c3d e507 8f3d
00000280: 7eff 48bd 71bd 993d 41fd ea3c b794 a2bc
00000290: d0ba 8ebd 3785 16bd 09b3 623d 6d9b be3d
000002a0: f245 83bd 96e1 45bc 4c23 0fbf f6a8 51bd
000002b0: 7ec9 5abd 7cd6 a9bd 6af8 4bb9 469d d23d
000002c0: 2ca2 bf3d 493f 843d a012 563b f96c 52bc
000002d0: 83d0 753d 872a 34bd be06 863d 91ca 52bd
000002e0: 95b6 55bd a900 9a3c 327f d43d 0d56 6cbd
000002f0: 707f f5bc 6cb9 c2bc 1a53 72bd 2674 9c3d
00000300: 3eea 02bd 0a0f 0fbd ccf8 5d3d 9cbe 2a3d
00000310: 4022 b9bc e1f1 27bd f28e 9f3d a66e 863d
00000320: b4cc 973d 72c3 a63d 96fe bd3d 008f 8aba
00000330: 80a6 ddbb 1f96 84bd 5697 af3d c074 583d
00000340: a096 533c 523c ae3d 785b afbd 1c89 c93d
00000350: 0623 0fbd ac5a a2bd 49a5 31bd 36e0 cc3d
00000360: 4079 343b 9820 bcbd 6c35 bdbc e030 bd3c
00000370: c28c 953d 6076 663d e095 47bb b8ba db3c
00000380: b4c0 ddbc 1c17 883d 902e 633d dff8 64bd
00000390: 505f c13d 3038 8c3d 10a9 373d 3ce0 873d
000003a0: 1247 bbbd f0d2 9e3c a492 e1bc c423 babd
000003b0: 0cce 91bc 6af0 07bd c8ec 523d 5a16 a73d
000003c0: ae61 a13d 00c0 d3b8 58a4 1abd b8f9 6a3d
000003d0: 60f2 acbd f0f1 c73b 616a 86bd a0a5 c73b
000003e0: d0cd 86bd 2879 4dbc a7ec 36bd 0031 313a
000003f0: 60c2 863b 6678 a3bd 9476 563d fe8c af3d

layers.0.bias f4 [16]
0.014532137 -0.051054314 0.0073069558 0.079502136 -0.092108205 -0.03505133 -0.039035738 -0.05044768
-0.016941579 -0.008555839 0.08195813 0.005413681 0.010912595 -0.00935456 0.024887988 -0.08464184
00000000: 3318 6e3c 541e 51bd 306f ef3b 04d2 a23d
00000010: 3aa3 bcbd fc91 0fbd f0e3 1fbd 3aa2 4ebd
00000020: 11c9 8abc ca2d 0cbc aad9 a73d 3f65 b13b
00000030: beca 323c de43 19bc e5e1 cb3c b358 adbd

layers.2.weight f4 [8, 16]
-0.13206814 -0.25477454 -0.16245404 -0.0349164 -0.047658212 -0.13690665 0.12907925 -0.04413747
-0.3381834 0.15978362 0.028808426 0.25485858 -0.08634714 0.1113611 0.11321058 0.030183101
-0.1719845 0.023587197 0.23443231 0.05808431 0.23086165 0.2201331 0.14465952 -0.17400922
-0.008721149 0.18974194 0.054742407 0.13642056 -0.115354 -0.069752924 0.23881496 -0.056579225
0.12215496 -0.090481654 -0.21551627 0.013902456 -0.23505406 0.087465614 -0.031035066 0.14197162
-0.0786108 -0.17369734 -0.23886836 -0.22259198 0.18807124 -0.24173559 0.009752591 -0.043412432
0.016324967 -0.057521455 0.24380642 -0.06871733 0.1356296 0.14601347 0.23244593 0.1352509
-0.21569403 -0.23290348 0.1721583 -0.22871205 -0.22274408 0.11084667 -0.023813903 0.013680997
-0.23057565 -0.17697474 0.24442485 0.03539267 -0.11303621 0.12336233 0.014437914 -0.12234111
0.031363755 0.4854405 -0.1701568 0.12372425 0.10849286 0.3172016 0.1953279 0.3481293
-0.059032146 -0.24644972 -0.20743778 0.2400819 0.14479992 0.080090195 0.025740236 -0.2383373
-0.17396887 0.17313775 0.14989583 0.07597376 0.11926989 -0.02129291 -0.0032798508 -0.12965053
0.05913879 0.0034909556 0.19961527 -0.09606737 -0.164212 0.2040039 0.043516904 -0.22599909
-0.4053688 0.12130823 -0.0076758317 0.11914781 0.010554279 -0.17785798 0.050384894 0.1234568
-0.13567449 -0.39333814 0.027139843 0.08100703 0.1969011 0.06745723 0.21857387 -0.09725933
-0.1235503 0.13061202 0.015824456 0.0016970455 0.00258693 0.03982914 -0.09483275 0.013253264
00000000: df3c 07be cf71 82be 5a5a 26be 8004 0fbd
00000010: 4235 43bd 4231 0cbe 5a2d 043e 7ec9 34bd
00000020: 6026 adbe 519e 233e a6ff eb3c d37c 823e
00000030: c5d6 b0bd 4a11 e43d f3da e73d 8d42 f73c
00000040: b41c 30be f039 c13c 060f 703e d0e9 6d3d
00000050: ff66 6c3e 926a 613e a021 143e 792f 32be
00000060: 26e3 0ebc b64b 423e 9339 603d d5b1 0b3e
00000070: b83e ecbd 9fda 8ebd e98b 743e 9ebf 67bd
00000080: 612c fa3d 724e b9bd 4cb0 5cbe 20c7 633c
00000090: 03b2 70be 2c21 b33d 403d febc 0261 113e
000000a0: b3fe a0bd b7dd 31be e899 74be 27ef 63be
000000b0: bf95 403e 8989 77be 55c9 1f3c 3cd1 31bd
000000c0: f0bb 853c 9e9b 6bbd 64a8 793e acbb 8cbd
000000d0: 7ce2 0a3e 8e84 153e 4e06 6e3e 367f 0a3e
000000e0: e5de 5cbe 407e 6ebe 444a 303e 7e33 6abe
000000f0: 0617 64be 9403 e33d 6015 c3bc 4326 603c
00000100: 061c 6cbe de38 35be 824a 7a3e e8f7 103d
00000110: 877f e7bd 64a5 fc3d 008d 6c3c fa8d fabd
00000120: 4877 003d a88b f83e 963d 2ebe 2463 fd3d
00000130: 8131 de3d 4068 a23e 0904 483e 013e b23e
00000140: b1cb 71bd 515d 7cbe 926a 54be 08d8 753e
00000150: 6e46 143e 5406 a43d 30dd d23c b10e 74be
00000160: e524 32be 064b 313e 4b7e 193e 2198 9b3d
00000170: c643 f43d 786e aebc c4f2 56bb 1cc3 04be
00000180: 843b 723d 84c8 643b f267 4c3e f8be c4bd
00000190: 3127 28be 66e6 503e c83e 323d 4e6c 67be
000001a0: 808c cfbe 7370 f83d 8b85 fbbb c403 f43d
000001b0: dbeb 2c3c 6720 36be 6460 4e3d ebd6 fc3d
000001c0: 41ee 0abe 9e63 c9be 6054 de3c 04e7 a53d
000001d0: 71a0 493e 0427 8a3d d4d1 5f3e e62f c7bd
000001e0: f107 fdbd 28bf 053e 4aa2 813c 666f de3a
000001f0: 7c89 293b e123 233d ac37 c2bd 3824 593c

layers.2.bias f4 [8]
-0.23356476 0.21084861 0.18774809 -0.0055617504 0.19929467 -0.06806693 -0.028407322 0.16052556
00000000: 9a2b 6fbe b3e8 573e 0941 403e 583f b6bb
00000010: e713 4c3e ad66 8bbd 79b6 e8bc d060 243e

layers.4.weight f4 [1, 8]
0.27956665 0.032892123 -0.28775156 0.23141709 0.37215722 0.15886724 0.12835205 0.11732984
00000000: 5c23 8f3e e4b9 063d 2c54 93be 9af8 6c3e
00000010: 648b be3e 18ae 223e b86e 033e a14a f03d
