HW01/HW1/models/model.ckpt (torch, 22039 bytes, 5 tensors)

layers.0.weight f4 [64, 61]
0	0x00076c86	6.8178e-40
1	0x00007d50	4.4954e-41
2	0x003798ee	5.105813e-39
3	0x81961efd	-5.5145764e-38
4	0x81064f62	-2.4668867e-38
5	0x8028959f	-3.727094e-39
6	0x801a716b	-2.42841e-39
7	0x00076278	6.78172e-40
8	0x8000e17b	-8.0887e-41
9	0x00054522	4.83978e-40
10	0x803b0a2e	-5.421946e-39
11	0x00071139	6.49027e-40
12	0x80003dee	-2.2216e-41
13	0x8005607e	-4.93792e-40
14	0x0032b611	4.657088e-39
15	0x8017e56e	-2.19452e-39
16	0x8001a240	-1.5004e-40
17	0x800714e0	-6.50337e-40
18	0x80061072	-5.56912e-40
19	0x0098b5c8	1.4024206e-38
20	0x0005e0ce	5.39822e-40
21	0x00275e7a	3.615476e-39
22	0x801bde8b	-2.559392e-39
23	0x800121d9	-1.03978e-40
24	0x8006d32e	-6.2677e-40
25	0x8001953a	-1.45368e-40
26	0x0013d0b4	1.819743e-39
27	0x00abf100	1.5790324e-38
28	0x00050503	4.60975e-40
29	0x00574c4d	8.01706e-39
30	0x0002489e	2.09721e-40
31	0x00029264	2.36186e-40
32	0x80ba540c	-1.7111553e-38
33	0x80177c2d	-2.156762e-39
34	0x003a9da6	5.383012e-39
35	0x258ef99c	2.4802215e-16
36	0x80009a53	-5.5361e-41
37	0x24413176	4.18921e-17
38	0xa42f11b9	-3.7962088e-17
39	0xa704699a	-1.8375927e-15
40	0x26308c65	6.1252536e-16
41	0x265ebaf6	7.72751e-16
42	0xa3007abc	-6.964884e-18
43	0xa4a34a2a	-7.081562e-17
44	0xa702993e	-1.8124197e-15
45	0x263db035	6.581135e-16
46	0x25d5406e	3.699327e-16
47	0x241530f0	3.2350676e-17
48	0xa489d1be	-5.9769596e-17
49	0xa70ad95c	-1.9269178e-15
50	0x261d76c0	5.4631253e-16
51	0x25e20296	3.9206503e-16
52	0x253c5331	1.6334587e-16
53	0x24d0c7ea	9.054429e-17
54	0xa7041878	-1.8331944e-15
55	0x263ae937	6.484778e-16
56	0x261a3416	5.3500073e-16
57	0x24e6e899	1.00140636e-16
58	0x22d3d770	5.7419768e-18
59	0xa707739b	-1.8797683e-15
60	0x263546d9	6.2893006e-16
61	0xa9850b03	-5.908297e-14
62	0xaa8f83b1	-2.5493282e-13
63	0x2992a24e	6.511858e-14
64	0xaa1e2d25	-1.4048882e-13
65	0xaa115386	-1.2907565e-13
66	0x2880be84	1.4293478e-14
67	0xaa6fbd4f	-2.1293144e-13
68	0x29adec04	7.7236855e-14
69	0x29cb5345	9.029456e-14
70	0xaaa93a2a	-3.006079e-13
71	0xa9972c9e	-6.713487e-14
72	0x29838043	5.8398185e-14
73	0x2900452e	2.8481713e-14
74	0xa8baf1d5	-2.0755026e-14
75	0x2ae2cd30	4.0288042e-13
76	0x294ebf79	4.5907265e-14
77	0x29cf3dba	9.2033545e-14
78	0xa700b9c0	-1.7864264e-15
79	0x29d2b7fe	9.357791e-14
80	0xaace6442	-3.666252e-13
81	0x293f367f	4.2457787e-14
82	0xab1c495f	-5.5524156e-13
83	0x2a483af0	1.7784016e-13
84	0x29d281dc	9.3484004e-14
85	0x292988bd	3.764414e-14
86	0xaa3888de	-1.6389968e-13
87	0xa9c1d101	-8.607178e-14
88	0x2851052c	1.1602952e-14
89	0xaa1c5c96	-1.3887706e-13
90	0xab1e996a	-5.634578e-13
91	0xa99ce116	-6.966838e-14
92	0x2a8b0ad5	2.4698876e-13
93	0x297f9d00	5.675755e-14
94	0x2aa9339d	3.0056244e-13
95	0xa96fcb5f	-5.3245057e-14
96	0x290242c7	2.892372e-14
97	0x2aa31cbe	2.897456e-13
98	0xb99cf3ea	-0.0002993637
99	0xb9a25499	-0.00030962078
100	0xbc8b254e	-0.016985562
101	0xbc82c9e4	-0.01596541
102	0xbc90dda2	-0.017683808
103	0xb998d471	-0.0002914998
104	0xb99e2e5f	-0.00030170658
105	0xbc8e0434	-0.017335989
106	0xbc84773c	-0.016170137
107	0xbc940fc9	-0.018073933
108	0xb9a2a39d	-0.0003102095
109	0xb9aac994	-0.00032575114
110	0xbc8f99bb	-0.01752936
111	0xbc87b275	-0.016564587
112	0xbc8f203b	-0.017471423
113	0xb9b605b3	-0.0003471799
114	0xb9c3a7a1	-0.00037318192
115	0xbc8fb7cf	-0.017543701
116	0xbc88675b	-0.016650846
117	0xbc80d173	-0.015724873
118	0xb9e18ed0	-0.00043021748
119	0xb9f15248	-0.00046028406
120	0xbc8eb0a3	-0.017418211
121	0xbc87f232	-0.01659498
122	0xbd1c7927	-0.038201477
123	0xbdd95df6	-0.10613625
124	0xbdb51113	-0.08841147
125	0xbcad84d1	-0.021181496
126	0xbc218988	-0.00985945
127	0x3ccb0b96	0.024785798
128	0x3a94c947	0.0011351489
129	0xbd0aa6da	-0.03385053
130	0x3d3ca038	0.046051234
131	0x3cbc08a2	0.022953335
132	0xbc7e507b	-0.015522118
133	0x3d38c8f9	0.045113537
134	0x3dd9d2ed	0.10635934
135	0x3b84dc50	0.0040545836
136	0x3ca4c2c5	0.020112405
137	0x3cc379e8	0.02386184
138	0x3d1a9b36	0.037745677
139	0x3c565d16	0.013083717
140	0x3c76d8d0	0.015066341
141	0xbd7202bc	-0.05908464
142	0xbd970207	-0.073734336
143	0x3dafc2da	0.08582087
144	0xbddceb81	-0.10787106
145	0xbd10a5b0	-0.035314262
146	0x3c9e01d2	0.019287977
147	0xbda71385	-0.0815802
148	0xbc9bb9f5	-0.01900957
149	0x3d9e2884	0.077225715
150	0x3c77b09b	0.01511779
151	0xbc31c8b6	-0.010851076
152	0x3b4b674b	0.003103691
153	0xbd1343f9	-0.035953496
154	0xbd6ab269	-0.05729905
155	0x3b1b9fd0	0.0023746379
156	0x3bff9e66	0.007800865
157	0x3b9e6b56	0.004834573
158	0x3caf6251	0.021409186
159	0x3cb62cb4	0.022238113
160	0x3d806831	0.06269873
161	0x3df0b0d5	0.11752478
162	0x3c93b10a	0.018028755
163	0x3cb61d94	0.0222309
164	0x3ddcd97c	0.10783669
165	0x3d939d2c	0.072077125
166	0x3cdcee0d	0.02696898
167	0x3c93da0d	0.01804831
168	0x3dad78b4	0.08470288
169	0xbd741c29	-0.059597168
170	0xbd62303e	-0.05522179
171	0x3dcd018a	0.10010059
172	0x3d588c40	0.052868128
173	0xbd4da0a4	-0.050202027
174	0xbe1cfc10	-0.15330529
175	0xbe2e7a9d	-0.17038961
176	0x3cd46491	0.02592686
177	0xbd4a18c8	-0.04934004
178	0x3d46c094	0.0485235
179	0x3e7fe9be	0.2499151
180	0x3e124321	0.1428342
181	0xbb600652	-0.0034183455
182	0x3da54915	0.0807058
183	0x304007ba	6.9860173e-10
184	0x305a7ad6	7.94825e-10
185	0xb0abfbdf	-1.2513474e-09
186	0x300be52a	5.0893567e-10
187	0xad869088	-1.5298221e-11
188	0xb1368934	-2.6562477e-09
189	0xaee6c328	-1.0493856e-10
190	0x30786902	9.03711e-10
191	0x312a8cb1	2.481823e-09
192	0xb0c61479	-1.4412215e-09
193	0xb08e0a79	-1.0334836e-09
194	0x2fede1a3	4.3270373e-10
195	0xb03f9f5f	-6.9711875e-10
196	0xb09d2ec8	-1.143655e-09
197	0x31040a7c	1.9214488e-09
198	0x30913e38	1.0567822e-09
199	0x30383933	6.7020095e-10
200	0x301ef41c	5.7826965e-10
201	0x2f0c9e6e	1.2789211e-10
202	0x308311c7	9.536557e-10
203	0xaf40cdca	-1.7535409e-10
204	0xafb248cb	-3.2429734e-10
205	0xb0dc5574	-1.6031394e-09
206	0xb0d4e524	-1.5490156e-09
207	0x31102cd1	2.0980233e-09
208	0xb1231fe2	-2.3737745e-09
209	0xaf98f6de	-2.782405e-10
210	0x30812585	9.396649e-10
211	0xb0f19c4d	-1.7579481e-09
212	0xb01e0b0b	-5.749576e-10
213	0xadd715d8	-2.445237e-11
214	0x305c8e5f	8.0237855e-10
215	0xb05907d9	-7.895529e-10
216	0x2f06e823	1.22697e-10
217	0x2fef00cc	4.3474413e-10
218	0x308e2b5b	1.0344182e-09
219	0x2dd8eeb0	2.4662355e-11
220	0xb6f7b271	-7.381947e-06
221	0xb77c5864	-1.50409505e-05
222	0xbc933375	-0.017968873
223	0xbc7cdb80	-0.015433192
224	0xbc8d3579	-0.017237412
225	0xb6e73f00	-6.8916706e-06
226	0xb790c569	-1.7258064e-05
227	0xbc93e5da	-0.018053938
228	0xbc812cf4	-0.015768506
229	0xbc8eff6d	-0.01745578
230	0xb7a53405	-1.9693756e-05
231	0xb80dae67	-3.3779444e-05
232	0xbc949264	-0.01813621
233	0xbc81cf94	-0.015846051
234	0xbc98551a	-0.018595267
235	0xb74c220a	-1.2167273e-05
236	0xb7a8c9c1	-2.012111e-05
237	0xbc95cf3a	-0.01828729
238	0xbc82bc5f	-0.015958963
239	0xbca17129	-0.01970728
240	0xb718b1e2	-9.101323e-06
241	0xb7a49126	-1.9617913e-05
242	0xbc978b1e	-0.018498953
243	0xbc853854	-0.01626221
244	0x0046661f	6.465119e-39
245	0x8016c285	-2.090161e-39
246	0x8002f92e	-2.7306e-40
247	0x0012a01b	1.710474e-39
248	0x009d5474	1.4448469e-38
249	0x800d9e8c	-1.250737e-39
250	0x006a8662	9.78277e-39
251	0x801027e0	-1.483672e-39
252	0x0013b7d3	1.810818e-39
253	0x000bc264	1.079925e-39
254	0x801ab35c	-2.452065e-39
255	0x002b7e76	3.994292e-39

layers.0.bias f4 [64]
0	0x24f0c37c	1.0441457e-16
1	0xb96b7543	-0.0002245503
2	0xbda7c1c7	-0.08191257
3	0xb738c5fd	-1.1013352e-05
4	0x800545ca	-4.84213e-40
5	0x8000d7bf	-7.7395e-41
6	0xbc44d789	-0.012014278
7	0xbe9a198f	-0.30097625
8	0x3d17bfc7	0.037048128
9	0xbdc028ca	-0.0938278
10	0xbab8739f	-0.0014072544
11	0xbd83df2c	-0.06439051
12	0xbee72796	-0.4514739
13	0x040d0d0e	1.6580465e-36
14	0x35b94f44	1.3806643e-06
15	0xb9135095	-0.00014049032
16	0x351866f4	5.677423e-07
17	0x3d9f3a08	0.077747405
18	0xbd2c45db	-0.042058807
19	0x800158ee	-1.23737e-40
20	0x8006ed14	-6.3606e-40
21	0x07f25d51	3.646696e-34
22	0x3e16affa	0.14715567
23	0xbd08b55d	-0.033376087
24	0xbdbf0f40	-0.093290806
25	0xbdc950c8	-0.09829861
26	0x3e0aee26	0.13567409
27	0x0000667a	3.6762e-41
28	0x3da9a709	0.082838126
29	0x81f56638	-9.0145463e-38
30	0x3c6568b2	0.014002012
31	0xbeccd007	-0.40002462
32	0xbbf47f07	-0.007461432
33	0x3ea7ef07	0.3279955
34	0xa93736ca	-4.0681685e-14
35	0x3e13e7fe	0.14443967
36	0xbdd1968f	-0.10233795
37	0xbdb4a5dc	-0.08820698
38	0xb8b138e4	-8.4506144e-05
39	0x80028c9d	-2.34114e-40
40	0xbab51b2b	-0.0013817301
41	0xbf22d443	-0.63605136
42	0x3e198a5b	0.14994185
43	0xbe012262	-0.12610772
44	0xbe1f1ca9	-0.15538277
45	0x3d625188	0.055253536
46	0x9ff1a699	-1.0234308e-19
47	0xb66ec305	-3.557828e-06
48	0x3e91158a	0.28336746
49	0x2dac0851	1.955783e-11
50	0xbdb5d5b3	-0.088786505
51	0x000287ab	2.3234e-40
52	0x80052a8f	-4.74445e-40
53	0xacb41ea8	-5.1193112e-12
54	0xae90e372	-6.588764e-11
55	0xbdfaf7ec	-0.122543186
56	0x3c8460dc	0.016159467
57	0xb763a338	-1.3568257e-05
58	0x29cff7d3	9.235637e-14
59	0xbc0271e0	-0.00796172
60	0xbe18cb60	-0.14921331
61	0xbea68ce2	-0.3252936
62	0x3c8398b4	0.016064025
63	0xbccb976a	-0.024852473

layers.2.weight f4 [16, 64]
0	0x00011817	1.00477e-40
1	0x00072a2a	6.57974e-40
2	0xb186abc4	-3.9194408e-09
3	0x000019e4	9.288e-42
4	0x0005fc56	5.49699e-40
5	0x80048f4d	-4.18749e-40
6	0xb35e971d	-5.182584e-08
7	0x80078b6a	-6.92861e-40
8	0xb15864a7	-3.1489351e-09
9	0xad1af75f	-8.808814e-12
10	0x80017289	-1.32923e-40
11	0xad1b5912	-8.8305075e-12
12	0x000296e9	2.37807e-40
13	0x800754e4	-6.73301e-40
14	0x80006eac	-3.9702e-41
15	0x000161a9	1.2687e-40
16	0x000350bf	3.04473e-40
17	0x9587c0c2	-5.4830184e-26
18	0xa7e198b7	-6.261562e-15
19	0x800060b3	-3.4689e-41
20	0x000241c3	2.07262e-40
21	0x8006c7c7	-6.2268e-40
22	0x9da1c7b2	-4.2822825e-21
23	0xae20a019	-3.6521983e-11
24	0xa4a5bdfc	-7.187919e-17
25	0xac91fcff	-4.149236e-12
26	0x9e92f291	-1.5558674e-20
27	0x000335bb	2.94781e-40
28	0xa2243a1c	-2.2256907e-18
29	0x00042817	3.81724e-40
30	0xab12ef51	-5.220174e-13
31	0x80034064	-2.98605e-40
32	0xb49312c8	-2.739455e-07
33	0x800314fd	-2.83036e-40
34	0x8000554b	-3.0597e-41
35	0x000255b8	2.14421e-40
36	0x00009098	5.187e-41
37	0x000464e7	4.03539e-40
38	0x0000607b	3.461e-41
39	0x00056529	4.95467e-40
40	0x80001978	-9.136e-42
41	0x00026a47	2.21796e-40
42	0x80008d0e	-5.0601e-41
43	0x0001d291	1.67372e-40
44	0x8c55c39f	-1.6467791e-31
45	0x00031d78	2.86078e-40
46	0x8000d100	-7.4975e-41
47	0x0003cc35	3.48762e-40
48	0x00037aed	3.19604e-40
49	0x0000e742	8.296e-41
50	0xa8393d97	-1.0282918e-14
51	0x00067895	5.9427e-40
52	0x0005fc67	5.49722e-40
53	0x8002141f	-1.90889e-40
54	0x80075701	-6.7406e-40
55	0xb648c6bf	-2.9918008e-06
56	0xad784ddf	-1.4114459e-11
57	0x8000ab3e	-6.143e-41
58	0x80062955	-5.6584e-40
59	0xb192158d	-4.2516093e-09
60	0x80000ac9	-3.869e-42
61	0x000186b0	1.40152e-40
62	0xac9a9f57	-4.3946335e-12
63	0xa4426eea	-4.2160992e-17
64	0x049b39b6	3.6493324e-36
65	0xbcff10a4	-0.031135865
66	0x3da806c6	0.08204417
67	0xbcbd67ae	-0.023120727
68	0x3491ffcf	2.719448e-07
69	0x2f7b537d	2.2857978e-10
70	0x3d48ed1a	0.049054243
71	0xbe010160	-0.12598181
72	0xbd641b2f	-0.055689987
73	0x3dc9d0f1	0.098543055
74	0xbd1bafeb	-0.038009565
75	0xbda213f4	-0.07913962
76	0xbc602c8f	-0.013682499
77	0x084b11c2	6.1108965e-34
78	0xb502a650	-4.867079e-07
79	0xbc0127f4	-0.007883061
80	0x3b473422	0.0030396064
81	0xbe16f964	-0.14743572
82	0xbd39283b	-0.045204382
83	0xb6c2ca1c	-5.805179e-06
84	0xaa8329e3	-2.329934e-13
85	0x3ad7d3b9	0.0016466297
86	0xbe5075e7	-0.20357476
87	0x3d75535b	0.059893947
88	0x3df08140	0.117434025
89	0x3ac9c3dc	0.0015393454
90	0xbe42c271	-0.19019486
91	0x3394da5c	6.9315064e-08
92	0xbdf9759c	-0.12180635
93	0x27ba045a	5.163009e-15
94	0x3d9a892e	0.07545696
95	0x3c8560b8	0.01628147
96	0xbd6ee3f5	-0.058322866
97	0xbeaa1119	-0.3321617
98	0x286420c9	1.2663652e-14
99	0x3e85e940	0.26154518
100	0x3da8d77e	0.08244227
101	0xbf05bb2a	-0.52238715
102	0x3c20b4a0	0.009808689
103	0x0d1b4ad3	4.785313e-31
104	0xbc66773f	-0.014066516
105	0x3e5de0dc	0.21667808
106	0xbcaca726	-0.021075796
107	0x3e0512e1	0.12995483
108	0x3d30b5ea	0.043142237
109	0x3f0d3bad	0.55169183
110	0x38d8b998	0.00010334252
111	0x3c980025	0.018554756
112	0xbebc337e	-0.36758035
113	0xb81b316d	-3.700091e-05
114	0x3c670b7b	0.014101858
115	0x0002face	2.73643e-40
116	0x2c00a8bf	1.8283567e-12
117	0x3bb7f00b	0.005613332
118	0x3c6e351a	0.014539028
119	0x3dc3e779	0.09565634
120	0x3d487ba1	0.048946027
121	0xb59aa0a9	-1.1520652e-06
122	0x39eceecb	0.00045191342
123	0x3dac47f1	0.08412159
124	0xbf0c30f3	-0.5476219
125	0x3e0785c9	0.13234629
126	0x3d62a93b	0.055337172
127	0xbd268660	-0.040655494
128	0x119639e0	2.3701495e-28
129	0xbd171513	-0.036885332
130	0x3da63f76	0.08117573
131	0xbcb65fe2	-0.022262517
132	0x398eed1a	0.00027261005
133	0xb928cea8	-0.00016098714
134	0x3e2e88ef	0.17044424
135	0x3dc3e2f7	0.095647745
136	0x3e3744da	0.17897359
137	0x3d94c32e	0.0726379
138	0xbcb08b07	-0.021550668
139	0x3cf6e8c7	0.030140294
140	0x3ca5659d	0.020190055
141	0x2a444700	1.743293e-13
142	0xb5b41f6c	-1.342019e-06
143	0x3b54a288	0.003244551
144	0xb92911db	-0.00016123748
145	0xbde495f3	-0.11161413
146	0x3c4fdd2c	0.012687009
147	0xbad00e18	-0.0015873341
148	0xb024ae77	-5.991078e-10
149	0x3c0b05b2	0.008485245
150	0xbe18307b	-0.14862244
151	0x3dc48c86	0.09597115
152	0xbc9e0ba6	-0.019292664
153	0x3dd412b4	0.1035513
154	0xbdf3f8b5	-0.119126715
155	0x38ec6cf7	0.00011273653
156	0xbd08587f	-0.03328752
157	0x35804700	9.557407e-07
158	0x3e3a4e2f	0.18193887
159	0x3d3fbcb9	0.04681084
160	0x3dc5f765	0.096663274
161	0xbf552458	-0.8325858
162	0x289c8114	1.7375458e-14
163	0x3edc251c	0.42997062
164	0x3a2eca24	0.00066676945
165	0xbe951d3b	-0.29123864
166	0x3caf4515	0.021395246
167	0xad6665e0	-1.3096607e-11
168	0xbb3ac2e9	-0.0028497523
169	0x3de6c4ac	0.11267981
170	0x3b8389b2	0.0040142173
171	0x3e3f3dd0	0.18675923
172	0x3d961848	0.0732885
173	0x3f4464bd	0.76716214
174	0xba46788f	-0.0007571065
175	0x3c971f0c	0.018447421
176	0xbede7cd7	-0.4345462
177	0x3b171b98	0.0023057219
178	0x3d435f81	0.0476985
179	0xb29c10a2	-1.8168354e-08
180	0x2a229b32	1.4442335e-13
181	0x3c69f1da	0.014278853
182	0x3c9def3a	0.019279111
183	0x3e280544	0.16408259
184	0xbc7b4626	-0.015336549
185	0x39eb032b	0.00044825053
186	0x3b1d41f1	0.0023995603
187	0x3e0d9f30	0.13830256
188	0xbebeabab	-0.37240347
189	0x3dce0be5	0.100608625
190	0xbd535a9c	-0.051600084
191	0xbd5c202b	-0.053741615
192	0x19c3e325	2.025427e-23
193	0xbd18637f	-0.037204262
194	0x3db4b05c	0.088227004
195	0xbcbab0f1	-0.02278945
196	0x3a066e06	0.0005128089
197	0xb9abec43	-0.0003279169
198	0x3e336091	0.17517306
199	0x3e20407d	0.156496
200	0x3dd228a5	0.102616586
201	0x3e0e7e24	0.13915306
202	0xbdaae805	-0.083450355
203	0x3c8e574a	0.017375607
204	0x3d169424	0.03676237
205	0x2d4e13b6	1.1714121e-11
206	0xb5b60045	-1.3560135e-06
207	0x3b5b66dd	0.003347806
208	0x3793f38f	1.7637181e-05
209	0xbe13f14b	-0.14447515
210	0x3e3a7c6f	0.1821153
211	0xbb1e7911	-0.0024181048
212	0xb1fd2788	-7.3677633e-09
213	0x3c275004	0.010211948
214	0xbe454f77	-0.19268595
215	0x3de79855	0.11308352
216	0x3dde848e	0.108651266
217	0x3da7f142	0.08200313
218	0xbdde1243	-0.10843327
219	0x398218de	0.0002481406
220	0x3dc9bea7	0.09850817
221	0x3680acbb	3.8348057e-06
222	0x3cfdfc30	0.031004041
223	0x3ae3fa19	0.001739326
224	0x3e29df9f	0.16589211
225	0xbf7023d2	-0.9380466
226	0x289ba28d	1.7278952e-14
227	0x3efe9986	0.49726504
228	0x3d5acc64	0.05341758
229	0xbecdea5b	-0.40217862
230	0x3cb32566	0.021868419
231	0xafa47098	-2.991143e-10
232	0xbb3b16e4	-0.002854758
233	0x3dc51d76	0.0962476
234	0x3d40483d	0.04694389
235	0x3e0fd834	0.14047319
236	0x3ce2052f	0.027590362
237	0x3f38e56c	0.7222507
238	0xba82205b	-0.0009927856
239	0x3c9c0c6d	0.019048894
240	0xbedb4f49	-0.42833927
241	0x3c6e17e4	0.014532063
242	0x3db0a0f0	0.086244464
243	0xb4112671	-1.3518162e-07
244	0x2cd44b3c	6.033755e-12
245	0x3c7be778	0.015375011
246	0x3c9f5b3a	0.01945268
247	0x3df04b7c	0.117331475
248	0x3e06503f	0.13116549
249	0x3a4d1af8	0.0007824148
250	0x3b5d839c	0.003380037
251	0xbd0b7d0a	-0.034054793
252	0xbeb21740	-0.34783363
253	0x3e25ef8a	0.16204658
254	0xbc8ec14c	-0.017426156
255	0x3e0667e0	0.13125563

layers.2.bias f4 [16]
0	0x00065d5f	5.84508e-40
1	0xbe17f83d	-0.14840789
2	0x3ddcf71f	0.10789322
3	0xbcc79a96	-0.024365705
4	0xbd8d128e	-0.06888305
5	0xbd87b9c4	-0.06627229
6	0xb3364dd1	-4.244595e-08
7	0x3da5974a	0.08085497
8	0xbe54a603	-0.20766453
9	0xa0e41812	-3.864063e-19
10	0x000216f3	1.91904e-40
11	0x3f00f02f	0.5036649
12	0x800748b0	-6.68924e-40
13	0x80010e31	-9.6926e-41
14	0x3dab3700	0.083601
15	0xb6f6e738	-7.3582887e-06

layers.4.weight f4 [1, 16]
0	0x3b780bda	0.003784886
1	0x3e218a85	0.15775497
2	0x3e6d4860	0.2317214
3	0x3e881cea	0.2658456
4	0x3e170f04	0.14751822
5	0x3e07017b	0.13184159
6	0x3cac0466	0.020998191
7	0x3e244afc	0.1604423
8	0x3e05dfda	0.13073674
9	0x3c8983af	0.016786424
10	0x342fde1a	1.6378945e-07
11	0x3f86c185	1.0527807
12	0xbbe0f79d	-0.0068654553
13	0xbb525721	-0.003209539
14	0x3e1f1c18	0.1553806
15	0x3bcdf48a	0.006285255
